data/InvManagement-v1/TRPO/default/best_model_eval_rewards.npy (npy, 24128 bytes, 1 tensors)

array f8 [100, 30]
12.549999999999999 17.7025 18.582774999999994 20.12443965 47.407429975499994 34.306424326714996 13.494146479849796 25.209064757171248
16.811295059938573 25.809844441322486 20.68474675940273 23.35459081082582 25.984396419279143 36.04060067836652 22.0332243642955 18.58592240116476
19.533266180113397 15.610642349100688 9.2183226375615 11.380438310735014 9.35326269834005 7.701215484528591 5.436346033385123 5.5090011991960095
-0.04814172219117238 -0.7004620578815575 -1.1663860700491069 -1.0984412504345957 -0.9802489718878333 -0.7027958933230596 4.199999999999996 9.021
21.405475 21.493449149999996 18.059973324 13.095693891924999 18.367032708684444 25.532257895083703 32.17266490491741 27.59638742916071
18.030019902580992 25.643555300707675 22.79272155870013 27.661413405805117 30.520095971283393 24.696796376334778 17.721217902398475 17.636450898220627
14.246498621685955 12.66984757746854 11.365301767169012 9.23090897118153 2.14895560849106 3.126730410354492 -1.0591178882057914 -1.2608317041868036
-0.8946067915910625 -1.1204100754432877 -0.6392928077529347 -0.5787730886189902 19.25 14.2105 27.050874999999998 29.296803299999993
25.806285411499996 18.376908149979997 32.52755679247745 22.744717080588806 31.310547209535954 18.435603172373202 27.46904872683607 27.18145331734705
21.33565260060971 20.661931668083138 22.29435887527974 21.59386554956451 16.154871086068624 11.916520877176097 17.91648913883426 10.20315158893484
6.5255321151209635 6.5935064079868075 4.144414387804188 7.444596215129743 1.973810609838066 -0.7938569989324319 -0.09059309281934817 -0.7359556377911791
0.042619520516862255 -0.6614549584217031 6.200000000000005 9.117999999999999 31.802419999999994 22.6342904 30.232749461499996 27.178931913404995
15.118441889461346 22.0983308047639 37.3845582451781 27.748433640891626 30.16064679000256 19.992674216311844 25.325246176333476 20.93114250414937
12.208038388513359 21.150589717168756 28.562794886014874 17.04062485436182 13.870830301032978 11.492560855668364 4.513493046292001 6.699002510514597
6.139873167117315 5.161586709156622 -1.3961099435439979 -0.8755775723519469 -0.8946067915910625 -0.6151271002433737 0.8097708898203839 -0.9921824376325548
-6.750000000000002 18.381500000000003 17.21847 15.606708300000001 6.108520388999998 16.874123605004996 26.072023754277694 18.018017438619193
14.577626485541142 7.868391457074749 16.628914061480625 22.38893391665691 17.762364441483207 19.484134260293384 26.374585609408538 21.277239954996116
23.955892485044732 20.40704200216407 21.55758209285542 18.500219914002734 15.878794813461012 10.76060245783447 8.442325604786308 1.7867030916311382
-0.09628344438234476 -1.1207392926104922 0.22648273204837024 -0.8348153503302927 -1.1081075334384203 -1.2402280470406932 21.4 20.709500000000002
3.246104999999999 16.245579399999997 19.963352865499996 21.98359105792 34.734932605539285 21.855935951329563 26.96077156465674 12.315743150203957
17.73505025182302 14.663678763305644 14.15438416430693 20.86383979513281 24.546644032518834 27.324788811252446 17.045538883589522 16.832085739011237
21.933250413508397 23.32148934613678 12.452890453022505 12.343043995751302 2.8652741446547467 0.24815320717099143 -0.7702675550587574 -1.400924115763115
-1.0418205674225032 -0.7469400502955251 -0.7991160096911684 -0.8681596329284853 8.450000000000001 25.705 38.906214999999996 8.259690649999998
15.8024766585 13.954427917624999 21.240786125689496 19.714781412659566 36.365691877909086 26.79814481757342 23.45008723525871 18.955487181834126
20.086736350817922 24.027067118911017 20.596984553882162 31.155958505530027 18.151195459822354 14.180659843839555 17.454128128799834 14.856237203668861
9.244503829754699 7.701215484528591 3.2234334127365902 3.1763610517886907 2.407086109558617 -1.0623674544536958 -0.7247447425547848 -0.9885971253911361
-0.8950099308541086 -1.3229099168434062 10.4 23.668 18.723909999999997 28.749199499999996 17.617326918999996 28.982273367374997
26.030375154031244 26.13824502866955 39.85334982740684 19.043788019296855 28.907025774281177 18.38324605936366 23.798792982143517 17.835217889387728
21.478313528453985 19.78909966052466 9.305942849959683 25.263024259613328 15.31570845739058 13.006215212268588 8.972606658291326 9.863885586348264
5.4747202406796065 2.8289465617493024 -1.010976166014619 -1.634411468390301 -0.6907723327475292 -0.9556438878780984 0.12785856155058686 -0.10335233725339114
18.9 11.882499999999999 2.446339999999998 19.66810315 11.9957175755 24.731539940159994 19.949679518049546 27.1078244424069
34.445520647286735 25.239671147331563 18.804315235820667 33.97681664668381 24.874248641686442 23.05117783817093 15.341652520324272 22.005478822503424
00000000: 9999 9999 9919 2940 a470 3d0a d7b3 3140
00000010: 27ed 0dbe 3095 3240 6013 e346 db1f 3440
00000020: 5e17 5aaa 26b4 4740 49f8 8ee9 3827 4140
00000030: dcc6 74c4 00fd 2a40 f4cb 9644 8535 3940
00000040: b0d7 7508 b1cf 3040 d553 1ef7 51cf 3940
00000050: 3dad 4990 4baf 3440 82f5 9f76 c65a 3740
00000060: 7a1a 5b67 01fc 3940 cbe3 2c67 3205 4240
00000070: 5e14 5664 8108 3640 16ff ae02 ff95 3240
00000080: 5fa6 e321 8488 3340 51e1 2d1d a638 2f40
00000090: 309b 18fc c76f 2240 3781 6dcf c8c2 2640
000000a0: d288 30d9 deb4 2240 12ff 956e 0bce 1e40
000000b0: 8283 9c7e d1be 1540 c3af 409c 3709 1640
000000c0: 3cb6 c424 08a6 a8bf b215 d667 2f6a e6bf
000000d0: 1fef 9570 84a9 f2bf 5b1a f321 3793 f1bf
000000e0: 8c44 8617 335e efbf 9cbd 32d0 4d7d e6bf
000000f0: c8cc cccc cccc 1040 986e 1283 c00a 2240
00000100: 7958 a835 cd67 3540 2e7d f9ae 527e 3540
00000110: 6136 6969 5a0f 3240 5a7d 30ca fe30 2a40
00000120: ab5c 08db f55d 3240 1c6c ac0d 4288 3940
00000130: c4e4 33e2 1916 4040 a3fd b7d8 ac98 3b40
00000140: 81d0 6362 af07 3240 f8b4 490a c0a4 3940
00000150: 8273 d1cc efca 3640 a711 9363 52a9 3b40
00000160: 8b71 7302 2585 3e40 4554 503f 61b2 3840
00000170: 5717 88bc a1b8 3140 0f5e 3172 eea2 3140
00000180: ee4c 3d11 357e 2c40 7d10 fd42 f656 2940
00000190: e652 4ed5 08bb 2640 c527 5fb3 3976 2240
000001a0: f632 58a3 0f31 0140 b40c bf3b 8b03 0940
000001b0: 453d 4799 25f2 f0bf 54e0 73dd 5d2c f4bf
000001c0: 2038 156c 9ea0 ecbf 7c34 821d 33ed f1bf
000001d0: 66bd bb30 1675 e4bf 178d ed23 4f85 e2bf
000001e0: 0000 0000 0040 3340 b29d efa7 c66b 2c40
000001f0: 1a2f dd24 060d 3b40 48d8 124d fb4b 3d40
00000200: 67a2 81b8 68ce 3940 8cc2 710d 7d60 3240
00000210: 953c 21fb 8643 4040 cae6 51c7 a5be 3640
00000220: 2cd2 9c05 804f 3f40 7360 83b0 836f 3240
00000230: cafd cd93 1378 3b40 9cc1 7fb9 732e 3b40
00000240: a16f 2e54 ed55 3540 939a 925a 74a9 3440
00000250: 249d 6e1a 5b4b 3640 c399 9992 0798 3540
00000260: c0c2 a9a1 a527 3040 2825 7339 42d5 2740
00000270: af6e 3e08 9fea 3140 0e36 2d7c 0368 2440
00000280: dcc4 3d17 251a 1a40 3f14 d124 c05f 1a40
00000290: 6ec3 825d e193 1040 69a1 ef3a 44c7 1d40
000002a0: 7609 1c6f ba94 ff3f 31b2 03cb 4667 e9bf
000002b0: 5310 e7e2 1b31 b7bf 84d6 73d6 f28c e7bf
000002c0: 420e 95cd 39d2 a53f 1a58 c696 a32a e5bf
000002d0: d2cc cccc cccc 1840 22db f97e 6a3c 2240
000002e0: 03a8 a965 6bcd 3f40 b12a 0cdb 60a2 3640
000002f0: d94d fd77 953b 3e40 0049 5c7b ce2d 3b40
00000300: 056d 536a a43c 2e40 7ba6 2635 2c19 3640
00000310: 3a39 5f34 39b1 4240 12db da58 99bf 3b40
00000320: b444 e525 2029 3e40 4da4 bee5 1ffe 3340
00000330: 5780 5a55 4353 3940 b23c eb5a 5fee 3440
00000340: 70f4 f501 846a 2840 8c5a 360c 8d26 3540
00000350: 39ca 5d53 1390 3c40 87e3 f463 660a 3140
00000360: de9a 1e78 ddbd 2b40 53c5 bcef 30fc 2640
00000370: b330 021f d10d 1240 a9ed 6950 c7cb 1a40
00000380: 606d 59e9 3a8f 1840 0f2f 7dfc 76a5 1440
00000390: 2145 5261 7756 f6bf 1f9b cb41 bb04 ecbf
000003a0: 2038 156c 9ea0 ecbf 1fb7 4d07 1faf e3bf
000003b0: f800 21a4 a4e9 e93f 2884 2962 f5bf efbf
000003c0: 0200 0000 0000 1bc0 8c6c e7fb a961 3240
000003d0: 3928 61a6 ed37 3140 6c6c 6578 a236 2f40
000003e0: 17d1 06f8 1f6f 1840 7828 8890 c6df 3040
000003f0: 6828 1526 7012 3a40 8ba0 75ca 9c04 3240
00000400: be67 a1a8 be27 2d40 1e0c 319c 3b79 1f40
00000410: c70d 0e83 00a1 3040 bc58 542c 9163 3640
00000420: becd e750 2ac3 3140 4fd5 0e39 f07b 3340
00000430: 3ff6 add7 e45f 3a40 53da 9b32 f946 3540
00000440: 61c2 b15e b5f4 3740 9e64 97e7 3368 3440
00000450: 36a6 35b3 bd8e 3540 1e73 8b69 0e80 3240
00000460: 3f6b cf64 f1c1 2f40 0250 73af 6d85 2540
00000470: 327b 6d80 78e2 2040 3b7c 23fb 5596 fc3f
00000480: 3cb6 c424 08a6 b8bf f6aa 1153 8cee f1bf
00000490: 61d4 a0db 62fd cc3f a9c1 7bae ceb6 eabf
000004a0: 9d1b 09f7 ceba f1bf 98f2 595d f9d7 f3bf
000004b0: 6666 6666 6666 3540 1383 c0ca a1b5 3440
000004c0: 7e0e f3e5 05f8 0940 4092 a34a de3e 3040
000004d0: 93d4 1b4b 9ef6 3340 8967 a29f ccfb 3540
000004e0: 14c7 8845 125e 4140 5e6e 569e 1edb 3540
000004f0: a020 1120 f5f5 3a40 c01f 1016 a9a1 2840
00000500: 167f d840 2cbc 3140 1ae5 eeb3 cd53 2d40
00000510: e66f f170 0b4f 2c40 2a14 d59a 24dd 3440
00000520: d238 02dd f08b 3840 9c6f 0a5c 2553 3b40
00000530: 9eb6 af6f a80b 3140 7185 2c92 03d5 3040
00000540: 3eff c47f e9ee 3540 7eab 3320 4d52 3740
00000550: f8cd e841 e1e7 2840 98ae 6d76 a3af 2840
00000560: 9dee cad9 14ec 0640 b434 99fa 7bc3 cf3f
00000570: 36b6 c424 08a6 e8bf b215 d667 2f6a f6bf
00000580: b813 160b 4cab f0bf a5f0 02d2 eee6 e7bf
00000590: bfac eabc 5b92 e9bf a253 e4b5 f6c7 ebbf
000005a0: 6766 6666 66e6 2040 14ae 47e1 7ab4 3940
000005b0: 8312 66da fe73 4340 69a7 412c f684 2040
000005c0: 291f 7838 de9a 2f40 712d a9c6 aae8 2b40
000005d0: bc2a d728 a43d 3540 5929 27ea fbb6 3340
000005e0: 2404 d0fd ce2e 4240 21f3 0038 53cc 3a40
000005f0: 81c8 c3ea 3873 3740 8bb9 d5ce 9af4 3240
00000600: 2a23 7e5a 3416 3440 0f85 e6de ed06 3840
00000610: 1b24 cffa d398 3440 d5c8 88e5 ec27 3f40
00000620: 9e3d e3be b426 3240 93fb 7172 7f5c 2c40
00000630: 9363 b5bd 4174 3140 a4c0 06b9 64b6 2d40
00000640: 1c16 219b 2f7d 2240 12ff 956e 0bce 1e40
00000650: 714c 0475 97c9 0940 c4c3 adfb 2f69 0940
00000660: 5aae b95c b641 0340 0f6a 1304 75ff f0bf
00000670: 4e10 e7e2 1b31 e7bf 702f 4f70 96a2 efbf
00000680: c2a2 d3dd eba3 ecbf 1a58 c696 a32a f5bf
00000690: cdcc cccc cccc 2440 5eba 490c 02ab 3740
000006a0: 523f 6f2a 52b9 3240 f6ad d689 cbbf 3c40
000006b0: a10b 1023 099e 3140 7f9b 7444 76fb 3c40
000006c0: d72c 85aa c607 3a40 66f8 b406 6423 3a40
000006d0: 3b61 3091 3aed 4340 2cd6 0eb1 350b 3340
000006e0: af2a 55d7 32e8 3c40 ad49 eb69 1c62 3240
000006f0: aa94 66b2 7dcc 3740 56f4 efd6 d0d5 3140
00000700: b9f1 61c1 727a 3540 f53c 736f 02ca 3340
00000710: 330b 8e8a a49c 2240 0718 d18e 5543 3940
00000720: 5520 f789 a4a1 2e40 d1dc eaa3 2e03 2a40
00000730: 5877 fa7f f9f1 2140 02b4 2936 4fba 2340
00000740: 65df 1110 1de6 1540 5ac2 26bc aea1 0640
00000750: 9317 2158 f52c f0bf 5119 cfa3 8c26 fabf
00000760: 8a3b 4494 ce1a e6bf 10e1 a17d a294 eebf
00000770: b5ca 2f5a ab5d c03f 23ee 777c 4c75 babf
00000780: 6666 6666 66e6 3240 a370 3d0a d7c3 2740
00000790: 4d2c b7b4 1a92 0340 c69a dbce 08ab 3340
000007a0: 5ba6 adb1 cefd 2740 79b4 9633 46bb 3840
000007b0: 2fb4 6732 1ef3 3340 dad8 f561 9a1b 3b40
000007c0: 07e5 10d2 0639 4140 7895 9b16 5b3d 3940
000007d0: 3886 719a e7cd 3240 01d9 ef53 08fd 4040
000007e0: 9e9d 4cc2 cedf 3840 6039 a5fd 190d 3740
000007f0: 07c7 4214 edae 2e40 0979 630f 6701 3640
