data/InvManagement-v1/TQC/default/best_model_eval_rewards.npy (npy, 24128 bytes, 1 tensors)

array f8 [100, 30]
000000 98 99 99 99 99 99 2e 40 8f 97 6e 12 83 60 37 40
       15.299999999999997 23.377000000000006
000010 a1 97 51 2c b7 64 36 40 bf 3d 19 2d d1 6e 37 40
       22.393419999999995 23.432879275
000020 b4 af 67 c8 5b 90 46 40 9c 01 8c 1c 83 7c 37 40
       45.12780098975 23.486375602894995
000030 69 26 f1 64 d6 78 40 c0 49 ea a8 a0 68 a7 25 40
       -32.94404279494194 10.826970120067147
000040 fe 39 f6 03 00 1a 26 c0 c2 fb a3 ce 4f 58 10 40
       -11.050781368071508 4.086241940268282
000050 24 ef b8 f2 57 54 31 c0 45 32 7b cf 87 93 2c c0
       -17.32946698203081 -14.288145526684398
000060 82 3f 93 c5 91 72 1c c0 df cb d9 16 96 c4 e1 bf
       -7.111884200203237 -0.5552473493866009
000070 81 8c 19 19 58 c0 26 c0 5c de 78 7f 5e ff f2 bf
       -11.375672134751087 -1.1873459796314796
000080 20 09 a5 fc 10 69 03 c0 4b 0f 3b 32 c4 3e 23 c0
       -2.426301931177605 -9.622590608319703
000090 14 4d 5f 6e 50 81 18 c0 90 b2 24 53 aa 73 19 c0
       -6.126283382956235 -6.3629544249676115
0000a0 cf e7 a9 c9 ef 9f 3b c0 7c a0 9b a7 d5 a3 2b c0
       -27.624752620678745 -13.81998943114035
0000b0 44 56 34 cf 88 04 3a c0 95 14 2b 8c 45 88 36 c0
       -26.01771254565962 -22.532311211126018
0000c0 9b 29 fe 8c 9f 26 3c c0 3e 2a 50 65 6f 28 36 c0
       -28.15087205128803 -22.15794976431993
0000d0 f4 91 fe f6 33 ee f3 bf dd 53 a8 ec 06 cb 05 c0
       -1.245655026266033 -2.7241343010777954
0000e0 bb 78 38 6a 47 78 fc bf 5e 78 d4 64 ce c0 24 c0
       -1.7793649815790065 -10.376574660240461
0000f0 30 33 33 33 33 33 13 40 48 e1 7a 14 ae 47 27 40
       4.799999999999997 11.64
000100 8c b9 6b 09 f9 58 32 40 e3 d3 08 a2 93 4d 33 40
       18.34755 19.303033949999996
000110 af 91 a3 87 01 c1 2b 40 19 83 55 54 f0 40 25 c0
       13.87696479675 -10.6268335680375
000120 37 1d 73 1a 8f fc 1e 40 c1 a1 22 13 83 9a 24 40
       7.746639645839699 10.301781270959397
000130 e6 53 95 c7 e4 83 33 40 a9 19 a0 da 9b b9 1d c0
       19.51520964999863 -7.431258598348372
000140 66 d3 1a 68 f4 0d 0d c0 9e da 11 b6 33 a2 22 40
       -3.631813824957521 9.316800775222244
000150 31 2b 87 68 57 f9 2d c0 a2 9c 37 9c d0 f0 15 40
       -14.986994997501457 5.485170784849432
000160 d2 a8 09 d0 93 73 10 c0 37 9a ce 45 2f 57 15 c0
       -4.112868548001829 -5.335141268477449
000170 d7 ad 97 d3 f1 f0 ef 3f de 5b 16 ab f1 df 11 c0
       0.9981621868768639 -4.4686953289410365
000180 59 79 ab 71 f6 ab 0f c0 3d 52 2d c3 e2 3b 32 c0
       -3.95896614841983 -18.23392886978603
000190 e0 bc c2 66 45 91 36 c0 0b d8 91 46 3a 25 38 c0
       -22.567465231460005 -24.145420466047693
0001a0 70 4c 04 75 97 c9 29 c0 2a c5 34 3b b1 30 1c c0
       -12.89373365094636 -7.047551083656154
0001b0 ab d8 6d e7 f3 68 26 c0 a9 6d 0c 40 d2 bb 04 40
       -11.204985839995365 2.5917096141617617
0001c0 b0 d8 3b 5c 3c 59 21 c0 9b 87 c6 e3 fe 7e b6 3f
       -8.674288637452577 0.08787530003476578
0001d0 a2 eb 8b 55 c2 31 2d c0 67 43 ad d7 22 66 27 c0
       -14.597185777025349 -11.699484577083878
0001e0 02 00 00 00 00 c0 33 40 6a 91 ed 7c 3f 75 2e 40
       19.750000000000007 15.229000000000003
0001f0 27 44 c0 21 54 61 3b 40 4e fe 38 ab 4f 5f 39 40
       27.380189999999995 25.3723094
000200 11 b4 8d 35 9f 2b 3d 40 54 68 c7 10 74 de 43 c0
       29.1703980895 -39.7379170392675
000210 6a f3 e8 71 73 f3 40 c0 4a 9e cb 39 c0 b1 35 c0
       -33.90196060061028 -21.694339382373336
000220 e7 70 90 c9 e4 90 2e 40 84 86 9d 10 b5 8c 12 c0
       15.282995509035073 -4.637409457792845
000230 3c d9 c9 b5 af 9c fc bf f1 69 16 a0 1f 3d 31 40
       -1.7882535077201984 17.23876381442273
000240 e6 6f f1 70 0b 4f 0c c0 6a cd e1 62 7c 1f 1b 40
       -3.5385960410767323 6.780747933418164
000250 64 45 79 fd d9 ae 23 c0 96 10 db b8 59 c9 1a c0
       -9.841506882718654 -6.696631325121549
000260 5e 6b f2 72 35 fd 2e c0 d7 cf 01 64 83 2f 33 c0
       -15.494548408596241 -19.185598612253525
000270 d6 2b 0b 07 7a cb 23 c0 dd 7e a2 43 8d 03 24 c0
       -9.897415371049572 -10.006937135301479
000280 b0 30 02 1f d1 0d f2 bf 40 b3 b6 b5 c4 68 2e c0
       -1.1283732615729996 -15.20462577681758
000290 97 97 bf e0 52 8c 3d c0 d4 d3 e4 32 cb 06 2e c0
       -29.548139616752078 -15.013269033844985
0002a0 be 9e a3 ba 62 e1 35 c0 d2 a4 5a 8b e3 8d 30 c0
       -21.880412735887823 -16.554253301267472
0002b0 36 b8 d5 08 d9 a6 15 c0 20 d5 8e 65 1a 4a 31 c0
       -5.412937295956047 -17.289465281840535
0002c0 1c 59 43 ff 32 7f 22 c0 7b 8f 26 47 c3 18 26 c0
       -9.24843595215912 -11.048364852387513
0002d0 68 66 66 66 66 e6 20 40 6d bc 74 93 18 64 2d 40
       8.450000000000003 14.695500000000004
0002e0 43 6e 86 1b f0 09 3c 40 d8 74 a9 b6 40 1d 2d 40
       28.038819999999998 14.557134349999998
0002f0 35 3f ef a7 f5 bd 33 40 96 7a 9e af e7 a9 2a c0
       19.742029663 -13.331845748992503
000300 a0 cd a6 4b 8b 1d 36 c0 56 4b 40 20 92 ea 07 40
       -22.115406730864947 2.9895365256901796
000310 45 79 e8 1a 44 91 3c 40 18 a9 7a 90 c8 65 22 c0
       28.567445451504017 -9.198795809720238
000320 8a fc e3 87 13 f5 29 40 0a 1d 64 e6 0c 9d 1d c0
       12.978664633350736 -7.403369521961631
000330 cb db 10 f8 c9 74 02 c0 20 44 7b 3b 5d 5e 25 c0
       -2.307025850309832 -10.684305056378491
000340 e4 18 a2 7a f3 ed 3a c0 de b2 4a 2f 05 7d 29 c0
       -26.929496445250052 -12.744180181377882
000350 19 07 bc 6e 7d 35 24 40 0b 3b ab 40 c0 6b 1c c0
       10.104472599461177 -7.105225573016251
000360 7e b1 e0 5a 36 08 02 40 7b ab df 0b 0d bd 32 c0
       2.254009923917862 -18.7384803219861
000370 2a 5b 55 a4 1f 15 39 c0 3f ad 7e 86 f8 ec 39 c0
       -25.0825140674962 -25.925667196204127
000380 78 d9 69 c9 99 17 2b c0 aa 69 3d db de fd 0b c0
       -13.546095174952583 -3.4989602211109814
000390 f4 0d aa ca 77 8e 14 40 89 74 95 d2 86 2c 2a c0
       5.1391288439076455 -13.086966114753766
0003a0 be cd c3 c4 77 15 1c c0 3a 95 5a 46 24 d3 28 c0
       -7.020964693499478 -12.412386129910931
0003b0 72 e7 56 a4 ba a0 04 40 69 25 10 7a 4e 81 f4 3f
       2.5784809912701627 1.2815689819420533
0003c0 a0 99 99 99 99 99 07 c0 d2 22 db f9 7e 8a 38 40
       -2.950000000000003 24.541000000000004
0003d0 bf d4 cf 9b 8a 34 36 40 25 b4 9b cf 6f e4 22 40
       22.20524 9.446165549999998
0003e0 a6 af 4a 96 51 54 dc 3c 49 f9 d5 cc 3d e7 28 c0
       1.5725959379153663e-15 -12.451643372649999
0003f0 30 6e b4 6b 3e d2 1b 40 25 ef 5c c3 01 ff 0f c0
       6.955316241157149 -3.999515081666589
000400 ea b4 c4 13 93 1f 13 c0 09 b8 78 96 6e 16 39 c0
       -4.780834492569946 -25.087624935600648
000410 77 6a d3 0f 84 87 2e c0 6c 29 c0 33 19 87 13 40
       -15.264679426725008 4.881932076076151
000420 2d c1 21 e5 f4 33 d6 bc e9 42 da 1f 74 c4 f8 bf
       -1.2325116234198634e-15 -1.5479623073808233
000430 40 bb 16 a7 f7 f3 11 c0 26 d3 4b ff 7d 54 29 c0
       -4.488249407541673 -12.665023782735783
000440 c3 75 fb 59 8f 18 e7 3f fc 68 e2 95 7c 6a 27 c0
       0.7217480428186537 -11.707981761825515
000450 84 d2 37 80 17 65 1b c0 b7 98 9b 83 c6 c9 29 c0
       -6.848722461135029 -12.894092667335242
000460 3d 1c 4c d5 9f e8 0d c0 56 47 5d a0 4b 84 03 c0
       -3.7385861076213858 -2.4395973709551226
000470 7b 84 7e 03 ed 19 37 c0 cf 52 c2 fc e3 0e f3 bf
       -23.101272791278898 -1.191135394420758
000480 12 bd 19 1c f4 84 25 c0 da eb 0f a2 a3 dd 02 c0
       -10.759674909727014 -2.358222261534576
000490 e2 8d e4 af cf 9e 21 c0 db 39 4b 84 a8 0d fe 3f
       -8.8101782766816 1.878334538243158
0004a0 e1 6f 3f de 17 12 e2 3f 29 a2 66 d1 4c 77 e9 bf
       0.5647086468484269 -0.7958129968511162
0004b0 9c 99 99 99 99 19 36 40 f2 d2 4d 62 10 a8 39 40
       22.10000000000001 25.6565
0004c0 18 e5 27 d5 3e 9d ef bf 79 48 d6 86 2f da 2f 40
       -0.987944999999999 15.926143850000004
0004d0 a0 7e 52 18 14 6c 30 40 40 72 e8 5f a2 14 1c 40
       16.422181625500002 7.020150660097499
0004e0 a8 f9 f2 f6 da 51 ff 3f 94 8b 6b b2 0b 90 08 c0
       1.9574842115831448 -3.0703348101682852
0004f0 34 65 b9 29 57 10 c4 3f 9f cf 19 33 11 53 35 c0
       0.15674867188753583 -21.324481195260542
000500 41 bf 39 67 c2 5b 2b c0 9f fb 4d 9d cc 4f c2 3f
       -13.679217553900914 0.14306028061761553
000510 4d 89 40 65 94 66 3a c0 59 2d 2e a4 ed 21 0c c0
       -26.400701835876408 -3.516566546115126
000520 2d 70 29 62 1c 0d 1d c0 1a 1d a7 52 b1 b1 13 c0
       -7.262803586749254 -4.92352799553853
000530 07 7a 8b 86 72 8c 33 c0 be 71 4e b2 6f 76 26 c0
       -19.548622521449968 -11.231320926738473
000540 57 b1 be fd 1a 05 16 c0 76 da 8f 88 48 60 0d 40
       -5.504985775722466 3.6720133465672076
000550 0b 16 21 9b 2f 7d f2 3f 3f 1a 09 54 8c db 2e c0
       1.1555629787193336 -15.428804994689129
000560 db 71 ae e8 14 55 31 c0 c9 1a db de f7 3f 2e c0
       -17.33235029467492 -15.124937977071925
000570 2d 22 4e b6 d8 50 24 c0 81 1b 24 4a d2 c2 05 c0
       -10.157903382337361 -2.7201276581067195
000580 c0 84 44 c9 5d 1e 12 c0 ba 86 c6 e3 fe 7e a6 bf
       -4.529654640967408 -0.04393765001738133
000590 c5 aa f4 02 39 73 2d c0 a3 3c c2 4a c0 06 2f c0
       -14.725044338575922 -15.513185821734004
0005a0 80 66 66 66 66 66 02 40 46 b6 f3 fd d4 58 38 40
       2.3000000000000114 24.347
0005b0 d2 22 db f9 7e fe 43 40 37 11 58 94 6d e3 11 40
       39.98825000000001 4.472097699999998
0005c0 f5 0d 83 61 8f e5 2e 40 b8 98 e2 29 5f 74 3d c0
       15.448359534499994 -29.454577081509996
0005d0 7d 66 35 64 2b 7d 29 c0 0b 7a 08 73 4d 2b 35 c0
       -12.7444716754137 -21.169150533265604
0005e0 f3 a4 ab 40 9b 87 3a 40 f9 63 c0 90 a1 b3 12 c0
       26.529712716966014 -4.67542101072558
0005f0 c1 c1 0d 7f c2 61 2e c0 37 2a d1 e4 ae 59 34 c0
       -15.190937014035514 -20.350324917855882
000600 c3 be e1 a7 5c e1 29 c0 1b 61 b7 97 e1 70 02 c0
       -12.94016003256491 -2.3051177838170935
000610 e2 e2 c4 95 d0 e4 27 c0 89 0c fe 6b f4 10 1d c0
       -11.946903877529113 -7.266557395344656
000620 b3 ce 27 b2 2a 2a 33 c0 9e aa 60 6b 58 35 2e c0
       -19.164713988035782 -15.104190211820704
000630 3c ff 9f 64 c3 44 e5 3f 0a ca 52 07 a8 7a 0c c0
       0.664643951924496 -3.55989080163386
000640 e2 30 0a de f5 43 21 c0 da 02 a5 06 7c 5d 16 c0
       -8.632735193962109 -5.591293433972817
000650 16 b8 51 a7 57 fa 34 c0 e3 cf ae 0a 6e 44 2f c0
       -20.977899987650822 -15.633652051772463
000660 a3 94 d1 44 32 00 26 c0 f4 c4 91 07 47 91 1f c0
       -11.00038352068288 -7.8918725187988805
000670 54 66 6b 99 ac 93 27 c0 10 bf 7c 29 0a 1c 2b c0
       -11.788426203117673 -13.554765030362915
000680 03 49 01 b5 98 e0 00 c0 db 45 7e 36 f6 44 0d c0
       -2.10966626558468 -3.6586727387700484
000690 00 00 00 00 00 80 29 40 9b 99 99 99 99 19 3d 40
       12.75 29.100000000000005
0006a0 37 15 a9 30 b6 10 32 40 53 6c 71 32 16 b1 39 40
       18.065279999999998 25.691744949999997
0006b0 37 cc ac b2 ea ef 34 40 e9 0c d5 db a2 9a 31 c0
       20.937174956499998 -17.60404752685
0006c0 c0 67 20 26 4e 43 32 c0 6a 8a be 69 25 fa 25 c0
       -18.262911208068317 -10.988566689023362
0006d0 50 7f 7b fd 4e 57 30 40 e8 52 14 72 23 2f 34 c0
       16.341049044275962 -20.184134607278708
0006e0 8f 93 9c 2f a3 6e fb 3f 12 41 0a 30 55 f5 14 c0
       1.7145110950307048 -5.239582777620187
0006f0 c9 ec ff 15 3e 6b ed 3f b8 aa 53 37 59 23 22 c0
       0.9193411283189558 -9.069040039981118
000700 68 0b 4f ef 59 d0 2e c0 e4 1a 9e d2 ea f5 24 c0
       -15.40693614807033 -10.480307180213863
000710 ca 0c c1 c4 8b 90 3b c0 6b 1c 07 1d 4f c9 08 c0
       -27.56463269913801 -3.098295428065787
000720 f2 2b 52 7f bb 78 20 c0 57 60 63 3d dd 13 2b c0
       -8.235805491238327 -13.538797300701999
000730 f3 98 46 36 31 9f d6 bf f3 4e 42 f7 52 7b 3b c0
       -0.35346632290237706 -27.48173470848901
000740 60 19 50 a8 a9 ec 35 c0 6d 6e 51 02 c0 a6 35 c0
       -21.924463767581415 -21.651367325669003
000750 b6 b0 80 f8 e4 26 3b c0 4b c9 3b 54 d2 c9 16 40
       -27.151931315821194 5.697091404103342
000760 16 cf 65 c9 f5 67 34 c0 4e 15 c0 74 9a 48 1f 40
       -20.40609415755815 7.82090170309432
000770 aa fb cd 9f 5c d0 2e c0 ae 98 e2 32 f9 56 f4 bf
       -15.40695666684572 -1.2712337482167118
000780 02 00 00 00 00 c0 35 40 22 b0 72 68 91 6d 2f 40
       21.750000000000007 15.714000000000002
000790 70 8f a5 0f 5d b0 11 40 fd c2 86 02 91 bd 34 40
       4.422229999999999 20.740493925
0007a0 1e 61 c2 af ab 80 22 40 d5 fd b2 1e 67 35 30 40
       9.251309864499998 16.208604735087494
0007b0 87 cb f8 c9 68 53 f1 bf 2f ab 2a 57 d5 97 27 40
       -1.0828636064077004 11.796549533804493
0007c0 0b 4c f7 55 5f c9 37 40 ad cb 57 10 dc 3e 22 40
       23.786610958934073 9.122772703854787
0007d0 fa 77 3f e7 70 aa 00 c0 c9 ce ec b7 15 eb 21 40
       -2.083223158478174 8.959150073678204
0007e0 d5 f1 42 ad 8c 09 2d c0 e9 bc b9 55 9a e4 20 c0
       -14.518651403829532 -8.446489981577956
0007f0 7f e6 34 41 92 cf 0b 40 48 bc a3 e2 46 2b 24 c0
       3.476353177477733 -10.084525187003365
