data/InvManagement-v1/ARS/default/best_model_eval_rewards.npy (npy, 24128 bytes, 1 tensors)

array f8 [100, 30]
00000000: 3033 3333 33b3 2ec0 9def a7c6 4bf7 3a40
00000010: c8b0 8a37 3213 3940 f352 b131 af77 2a40
00000020: ba76 fa25 480d 4440 a89e 0809 1486 3440
00000030: 36fd 15fb a812 2840 47c0 e46f 56e5 3940
00000040: 6a65 dc39 6aed 3240 766e 7731 fb7f 3340
00000050: c9f0 85ec 9cd7 2a40 9ac8 3e91 0ff6 2640
00000060: 6a85 9dec 91f1 3840 0fa9 b088 b632 4340
00000070: fabd aae7 08e4 0440 40b8 c695 e172 3640
00000080: a159 b1fb e592 3640 66f9 2c6b e4a0 2540
00000090: b79a fc1a c2ba 2f40 c43a c393 7ae6 2940
000000a0: 855a b907 9fd7 ebbf a7e1 f9f1 2ed4 3140
000000b0: 36ac 011a 515d 2f40 c339 f7cb 33b9 2740
000000c0: 4bd2 73d8 bacc 2d40 06cf 8936 7522 2640
000000d0: bd84 44c9 5d1e f2bf 6178 9a32 c641 2040
000000e0: 8c44 8617 335e efbf 9cbd 32d0 4d7d e6bf
000000f0: 3033 3333 33f3 37c0 986e 1283 c00a 3240
00000100: 8bfd 65f7 e4fd 3b40 f7ad d689 cbbf 2c40
00000110: a2d0 ef51 38c7 2540 a4cd b977 d97c e0bf
00000120: 60d4 d8d2 153e 3140 7e7c 6204 1a57 3a40
00000130: d357 6480 2761 4140 583e 2b73 8766 3540
00000140: f562 57c8 8375 2540 b7ed cfed 94c0 2a40
00000150: 865c c215 ff05 3540 1149 c9e4 889a 3c40
00000160: 8917 58da ea75 3940 0411 106c 8188 3a40
00000170: f1a3 0251 0022 3c40 9e64 97e7 3368 3440
00000180: 7ad2 81b6 63b9 2c40 ba69 3f1b cbbb f3bf
00000190: 3c6e 4f55 3d24 f3bf 993e 4791 2983 2140
000001a0: e7e0 126c b544 3140 c356 f824 41d1 3140
000001b0: 4bd2 73d8 bacc 2d40 57b4 5871 8c03 2540
000001c0: 5d63 721d 518a ebbf e93e 7e31 4558 2040
000001d0: 66bd bb30 1675 e4bf 178d ed23 4f85 e2bf
000001e0: d0cc cccc cccc 21c0 2506 8195 433b 3740
000001f0: 8fdf dbf4 67a7 4040 5892 9790 6ac4 3540
00000200: 0c10 53c2 5675 3240 1c99 e4d3 e577 1540
00000210: 8750 194f 8c13 4040 849f 7882 a647 3840
00000220: e203 f30d e20b 4140 768e 2156 1fb5 2840
00000230: f048 c779 9634 3440 d87d e588 162e 3a40
00000240: a224 e195 9e38 3940 1bc3 a81a afba 3440
00000250: 604a 3349 a411 f9bf 40b8 c695 e172 3640
00000260: 8f79 d532 c64c 2d40 81e3 48e4 a2fb 0e40
00000270: e64c 8747 81d2 2d40 3d52 491f f8c2 3340
00000280: b330 021f d10d 1240 21a2 48cf 101f 2f40
00000290: b8b1 e6b2 35d4 3240 4bee 36a3 fc23 2c40
000002a0: 30c2 024e b429 2c40 d917 2b0e 7506 2240
000002b0: b813 160b 4cab f0bf 2a73 9c28 3d0c 2140
000002c0: dd51 fa40 c846 ebbf 1a58 c696 a32a e5bf
000002d0: d0cc cccc cccc 35c0 0000 0000 0030 3240
000002e0: 75fd 82dd b01f 4340 f02c 8bd3 5a64 2e40
000002f0: dd50 fb24 2c1b 3740 712d a9c6 aae8 2b40
00000300: 3b27 b424 d67c 2c40 f186 6790 6211 3740
00000310: 7c39 3c24 26d4 4340 10ad 3cb3 fd79 3540
00000320: 4e3b 8acc 9fd2 4240 cfd9 0005 9ecf 2140
00000330: 7db8 fef1 c119 3c40 2a63 5cd9 3db8 3340
00000340: 9531 2286 6db6 f0bf 9c48 ee0b 5948 2f40
00000350: 0843 aee2 8e5b 3f40 981e 22e4 4b8c 2840
00000360: f8e8 fc20 7b56 3640 961e dfa8 b099 0d40
00000370: 93d8 d364 c366 f1bf f480 9dba c395 2a40
00000380: 568d ccd8 c2f9 3540 62dd 0c81 8d58 3140
00000390: 233f b34c a194 3440 7080 9a7c d2e5 eabf
000003a0: 5d63 721d 518a ebbf 3b00 6426 3b39 2140
000003b0: 8c44 8617 335e efbf 2884 2962 f5bf efbf
000003c0: 9899 9999 9959 41c0 cba1 45b6 f3bd 3b40
000003d0: 751f 80d4 26f2 3740 b2f5 0ce1 986d 2040
000003e0: 21d0 d8ab 501f f3bf e927 8591 7cda 0c40
000003f0: 8485 4503 8932 3940 0635 d9be 2a07 3340
00000400: 95e0 8739 ea15 3140 27ef 3e15 1eb8 f73f
00000410: 7360 83b0 836f 2240 1241 0a30 55f5 2440
00000420: ae38 2ad6 bab8 3040 4805 b5d9 28fd 3340
00000430: dcd5 df3f 8f44 3c40 62c8 5332 c568 2f40
00000440: 3592 c1d9 b0b7 3340 b5e5 396b 01c6 2740
00000450: 9ebc 1f6f 472a 3140 901e ffc7 0561 3140
00000460: 0af2 846e 88b2 3540 d502 a506 7c5d 3640
00000470: 8982 baf9 b563 3440 1d3f b433 1243 3940
00000480: a195 8715 9885 1e40 f6aa 1153 8cee f1bf
00000490: 4e10 e7e2 1b31 e7bf 921f f12b c0c8 2040
000004a0: 9d1b 09f7 ceba f1bf 98f2 595d f9d7 f3bf
000004b0: 0000 0000 0000 1bc0 1804 560e 2da2 3d40
000004c0: 8aa6 b393 c131 2340 805f 2349 10cc 2140
000004d0: 080d 5515 c095 2940 50af 74a8 9eb0 2140
000004e0: 55e8 d026 1b0e 4140 e26a ffc4 5bf2 3640
000004f0: a270 b3d9 f76d 3d40 99cc 6195 0adf 1740
00000500: d568 0616 3f04 2540 80a3 ad34 8a2b 0340
00000510: 8598 092b 8041 2940 6658 869b fa66 3540
00000520: 9ae5 58d6 e1d4 3a40 88d8 c765 5a4a 3640
00000530: 0ea8 d46c 2789 2a40 de5b 16ab f1df 2140
00000540: 369b f3e0 a1c5 3140 ba69 77d3 f5c9 3640
00000550: b330 021f d10d 2240 f480 9dba c395 2a40
00000560: d4c4 2790 9b46 3940 f1e8 793b 1e9a 2a40
00000570: e09c 3707 e73e 2240 ab6d 0c40 d2bb 2440
00000580: b813 160b 4cab f0bf a2ac b829 bef5 2040
00000590: 14b0 4707 818c e8bf 1a58 c696 a32a e5bf
000005a0: 6866 6666 66a6 33c0 1904 560e 2d82 4140
000005b0: c555 65df 15cb 4640 1bd8 2ac1 e240 f23f
000005c0: 4b58 3c71 10d2 2040 a4cd b977 d97c e03f
000005d0: 53ab 8729 7108 3440 b785 ba47 7c7b 3440
000005e0: 1ae1 4119 c45b 4340 7a7c 6bb2 7290 3440
000005f0: 7ba9 8b6c 4b26 3040 bf51 9554 f59b 1a40
00000600: c6db 10f8 c974 3240 808c 76bf eb76 3840
00000610: e2d0 25f4 c4e1 3640 86b1 ab15 8e3f 3a40
00000620: 8f79 d532 c64c 2d40 a713 9b00 5cbd 1940
00000630: d4dd 98f1 438a 3640 183d ae3e 0b6d 3040
00000640: 855a b907 9fd7 ebbf a7e1 f9f1 2ed4 3140
00000650: 7050 e8b1 e3e1 3140 62dd 0c81 8d58 3140
00000660: 1268 560c 165c 1840 31b2 03cb 4667 2940
00000670: 4e10 e7e2 1b31 e7bf 8192 292e c29b 2040
00000680: c2a2 d3dd eba3 ecbf 1a58 c696 a32a f5bf
00000690: 0000 0000 0080 31c0 60e5 d022 db89 4040
000006a0: 1e55 4d10 755b 3940 9b72 2abe 465b 3540
000006b0: 247b 3dc5 95e4 2440 68a6 bb59 0f16 2f40
000006c0: fca8 c526 3ddd 3840 e08c 18fb f125 3b40
000006d0: d6cf d796 2b15 4540 c026 8ad6 e429 2940
000006e0: 3ba4 d124 1059 4140 1281 294d 6d78 1d40
000006f0: 73f5 2209 7185 3740 0bc1 03d9 5273 3340
00000700: f71c 805b 0d56 0f40 40b8 c695 e172 3640
00000710: 2817 0c9b 299f 1540 cb20 136b aa56 3140
00000720: a7bc fa53 2180 3040 aac7 df52 ec90 3040
00000730: fdbd f2e0 21d6 0140 5c19 cfac dbb1 3040
00000740: aa5b bd3e 8fcf 2a40 c411 1d0d 43f9 3040
00000750: 8490 9ee3 d7e0 2740 cea8 bcac 4652 2640
00000760: 3fbd 5ba8 e6d7 e2bf 8192 292e c29b 2040
00000770: 14b0 4707 818c e8bf 24b9 50ef a01a edbf
00000780: d0cc cccc cccc 21c0 4c37 8941 6025 3540
00000790: e270 e657 73c8 2140 a9a9 c024 f046 2840
000007a0: 2cd0 d8ab 501f 1340 9aeb fc9c 8d45 2740
000007b0: 6d08 b806 8a28 3340 6ef1 0654 de51 3c40
000007c0: fdc1 82ed fb65 4240 e23d a630 7096 3240
000007d0: 145d a87a c8e6 2540 ff1f ce48 bc47 3540
000007e0: 3b56 df5f 643e 3740 e191 615e 8d9f 3740
000007f0: ae54 845e d4c1 3140 3b02 22e9 14d0 3040
-15.349999999999994 26.965999999999998 25.074984999999998 13.233758499999999 40.103764293 20.523743214229995 12.036445471224038 25.895850175235207
18.927402130420354 19.49992665448959 13.421119109487693 11.480587519563688 24.94363287778598 38.39619549394603 2.6113451098424294 22.448754654899176
22.573821764753692 10.814242696037308 15.864762156806462 12.950153939801915 -0.8700709486827952 17.828841327196326 15.682259381012141 11.86172330277339
14.89986301816784 11.067300514528608 -1.1324136602418513 8.128465253216008 -0.9802489718878333 -0.7027958933230596 -23.94999999999999 18.042
27.991775 14.37459975 10.889101563 -0.5152404154199997 17.24252050203029 26.340240739864832 34.75901799106182 21.400504301126006
10.729521046321205 13.376136237747103 21.023423538161772 28.60365133203692 25.460614820963688 26.533224824831464 28.132817328590992 20.40704200216407
14.362088874194558 -1.233347994266849 -1.1963475544388436 8.756176509806481 17.268393282517447 17.817400274877183 14.89986301816784 10.506930868223362
-0.860634381783807 8.172402903233392 -0.6392928077529347 -0.5787730886189902 -8.900000000000006 23.2315 33.30786 21.76725105
18.4583550885 5.367087660625 32.152719390259385 24.27988448567295 34.09283613553977 12.353754703136683 20.205421076921027 26.180031353023736
25.22116982218416 20.729234377099697 -1.5668070659054578 22.448754654899176 14.649949635085049 3.8728692850822317 14.911142573610459 19.76159854450292
4.513493046292001 15.560675122848865 18.828944379159765 14.070286846595215 14.081453740917908 9.012611811409373 -1.0418205674225032 8.523904103372463
-0.8523904103372463 -0.6614549584217031 -21.80000000000001 18.1875 38.247584999999994 15.196005450000001 23.106142340999998 13.954427917624999
14.243821284285891 23.067910218501257 39.657413987547415 21.476527406991465 37.645501677986076 8.905502468446597 28.100615620315228 19.719693741851337
-1.0445380439369718 15.641304371678693 31.35764900927009 12.274016503491382 22.337816297288526 3.7000439828005467 -1.087588685853494 13.292508918501404
21.975629377307392 17.345909181252303 20.580586236726173 -0.840554469457869 -0.860634381783807 8.611779403407231 -0.9802489718878333 -0.9921824376325548
-34.69999999999999 27.742 23.945905 8.214057 -1.195145293499998 3.606682907940002 25.197403149102243 19.027995994595607
17.08560523574177 1.4824505643764014 9.217801586186601 10.479165555240375 16.721600899990044 19.988904577917566 28.267810814044296 15.704629490592371
19.717542276152205 11.886729574983159 17.165152497528304 17.378994464669233 21.697394282777204 22.36517373589125 20.389495475802082 25.261996490006926
7.630462967300816 -1.1207392926104922 -0.7247447425547848 8.392091153320312 -1.1081075334384203 -1.2402280470406932 -6.75 29.633499999999998
9.597179999999998 8.898561749999999 12.792481104499998 8.844960464709999 34.110203601842535 22.946712791784087 29.429563146885478 5.967813810438337
10.508293808252725 2.3962597003450696 12.627930970116958 21.40226146726527 26.831571003630962 22.29044185761498 13.267878914794007 8.937390657882073
17.772001323198502 22.788907257703364 9.026986092584002 13.292508918501404 25.275811204632944 13.301011904365142 9.122856355227157 10.36683845664705
-1.0418205674225032 8.479966453355079 -0.7671513693035217 -0.6614549584217031 -19.650000000000006 35.017 45.586605 1.14084125
8.410281695 0.5152404154199997 20.032976718542454 20.48236511520164 38.71692195622218 20.564250136605985 16.149588378998924 6.652303048719147
18.45620680247864 24.46453472751864 22.881911524994287 26.248261789719912 14.649949635085049 6.434921273675093 22.540099239178588 16.42595283273576
-0.8700709486827952 17.828841327196326 17.88238059922918 17.345909181252303 6.0899278571833 12.70171198291891 -0.7247447425547848 8.304215853285543
-0.8950099308541086 -1.3229099168434062 -17.5 33.077 25.357255000000002 21.356548200000002 10.446455158 15.54308586517
24.86421434713064 27.14822358464596 42.165392737748036 12.581824020733052 34.695805170406366 7.367604451807226 23.521256037745342 19.450482905785105
3.917017664763644 22.448754654899176 5.405432150471633 17.338537876291223 16.500508545603818 16.56610601390245 2.2295568059996627 16.694758225022596
13.405389748206137 16.973679370495816 11.93914710341074 11.160695455579482 -0.5888551033257626 8.304215853285543 -0.7671513693035217 -0.9095005678298418
-8.900000000000006 21.146 8.891504999999999 12.1385509 4.780581174000002 11.635846048234999 19.158356113366995 28.3197987095786
36.79675072559983 18.587649384104118 10.950748284389682 21.280216741870387 23.243719093347163 23.62325086481167 17.75714674692852 16.812819071581753
