data/InvManagement-v1/SAC/default/best_model_eval_rewards.npy (npy, 24128 bytes, 1 tensors)

array f8 [100, 30]
21.30000000000001 26.4325 20.111737499999997 12.207001375000003 8.587340256999996 15.972452878019997 -4.78958902834175 15.230476624124298
9.561668985139887 20.75430790126963 8.001051776809968 7.4391345921160354 16.790985136089596 29.310329776710777 10.902365833592143 22.10046650087394
20.162876174912647 12.750677338578425 13.538508325070728 13.833118981152046 -10.046600485571652 -6.303392126035387 -4.042083168352237 -2.4567167509928147
6.258423884852403 10.355164089015693 19.692673551605793 4.0422638015993115 -3.175154278506242 -2.57347319760944 9.349999999999994 20.103249999999996
23.381364999999995 17.38642065 -5.223227578999999 -14.791693592682499 3.8316712226734064 17.452429447272404 15.949177364557116 10.871304138760282
1.7329466982030808 10.944111467247629 8.55160709926877 15.479623073808217 19.01385658104019 19.345823828128907 24.32444467712234 21.390154974531093
13.524059543507155 9.306171229468038 -6.729454993718496 -5.6176674596047596 -5.193309387186729 -5.881231009952497 0.7461966939631716 5.393557845687992
1.245655026266034 7.139868127824871 3.260393319539967 5.312310134824303 25.450000000000003 24.371250000000014 27.874162499999997 23.615413874999998
-9.7824855505 0.7943289737725006 16.53449429784065 11.998545244999782 20.063830001605016 9.616922891980247 14.121672030037875 23.46188602128903
16.270603365343018 17.936171952912563 13.28521824632336 24.253520543939022 10.334817719509683 8.192608103058568 11.775756974314454 12.1933267615018
-9.516401001218071 -6.250644074771494 -2.865274144654749 -7.01032810258051 -0.6499132495808269 8.755775723519468 15.21963959365048 10.610942479198194
-2.3866931489442886 -2.9765473128976634 11.550000000000011 20.05475000000001 32.766842499999996 18.618529199999998 7.547121205250002 8.630276958285
3.2902394194695397 17.0080388826428 34.64145648714616 16.554031302203153 24.722143854152463 0.26823802615803005 13.668694511610123 9.153168426251815
0.048962720809546244 10.87608917342435 26.213274661520103 12.27401650349138 17.598615944435593 9.067910821484674 -6.647885842279483 -5.6176674596047596
-2.097789998765082 -4.752133917324485 0.024070861095586083 13.915846216580274 0.2491310052532072 3.295323751303787 2.109666265584685 -3.4829737654392803
-0.25 28.809 18.512207499999995 9.993769349999999 -23.65945034725 -1.3954427917624976 16.242954096115493 13.190319941051959
13.833070294075334 -2.0906354113000534 -1.1983142062042582 4.649459120072524 1.595837430289508 1.884475852463607 12.273322016259417 9.324623760039218
12.085440631878337 5.958260438588049 1.8638928217013093 6.615230151067644 15.634087359143976 15.82441537916834 -2.890856949517738 -6.476798707162875
1.8775271654557217 17.067925477047286 0.8379861085789702 -4.800188264399184 8.353426021305012 -0.8164834643017873 28.10000000000001 31.500750000000007
4.8926799999999995 8.921378574999999 -12.017849895749999 4.2292650765725 23.281567537765536 16.321253464578835 25.785156525500188 0.47514441165910315
-2.894389698062592 -3.2188563138963597 -2.3243719093347175 5.754381620915663 11.473597576370175 16.702000113482814 7.340331158879093 8.118129847576217
14.376537655758138 15.669125654435648 18.80168940669228 2.1362960761877248 -3.9397519489002755 -6.3899450846530295 7.17311660648468 24.971472363477528
1.5627308511337543 -0.9666283003824447 -0.23440736284274266 4.7438722799306525 15.200000000000003 36.302249999999994 40.223475 2.304499325
-22.68562825625 -4.787442193277498 5.664209633517211 15.533470190917207 10.031915000802506 17.219233478525897 6.563074729364859 2.5929675861942907
4.770166231843635 5.703904589153245 7.262803586749257 21.92632242386133 9.413437239315655 7.403138594945651 14.824449884228994 18.976740729969467
5.288399984962614 -6.7781245874104386 -4.707236094789939 -5.186402029873721 -6.2584238848524025 13.378825305537749 8.266619719765513 14.543362155754048
15.236478584778277 8.867630536340956 19.450000000000003 33.562 20.3940075 19.713736799999996 -20.826513355249997 6.783998803030001
10.078961259640897 18.502807145487868 32.29022640883307 6.804067974958357 25.55174599690925 -15.557805517165745 9.95663788028453 8.984911653710421
13.88909180297442 21.41972147255189 2.0731060804365646 19.03664210128882 13.56740588819788 9.362232501934717 -0.5573892014999159 -9.019916766125952
-4.579322070474999 -5.608262482064407 3.105141081330616 -1.9846424973310783 0.475613737301577 -5.118736227025217 9.674631157327745 14.07658833391187
28.049999999999997 20.685250000000003 3.9282574999999973 10.039403 -20.516660871749995 7.2348341665225 8.662908851261594 23.43150249865277
32.91722109638323 15.109592290759483 1.6223330791688406 16.112164104559007 5.377278297714643 7.5379034098544375 2.2196433433660645 7.74149578719725
00000000: d0cc cccc cc4c 3540 1f85 eb51 b86e 3a40
00000010: 9e3c 2cd4 9a1c 3440 3fb4 8f15 fc69 2840
00000020: e1e0 b6dc b72c 2140 72fe f757 e5f1 2f40
00000030: 6e08 b806 8a28 13c0 7336 3608 0176 2e40
00000040: e7b4 c413 931f 2340 4511 9752 1ac1 3440
00000050: c500 c6db 8900 2040 02b9 9e7f acc1 1d40
00000060: 7e20 7b00 7eca 3040 a1f2 b1c5 714f 3d40
00000070: b09c 00e5 02ce 2540 dd98 2f2c b819 3640
00000080: 228c c440 b229 3440 d715 b6c7 5880 2940
00000090: e39a f95c b713 2b40 2373 3392 8eaa 2b40
000000a0: 1404 d304 dc17 24c0 5cbe ec6c ac36 19c0
000000b0: c223 9fd9 172b 10c0 6865 a81c 5ba7 03c0
000000c0: 0ec9 5745 a008 1940 7312 4611 d8b5 2440
000000d0: 78f3 ca0d 53b1 3340 d8b1 b633 472b 1040
000000e0: a282 4f49 b766 09c0 b4eb a61d 7996 04c0
000000f0: 3033 3333 33b3 2240 de4f 8d97 6e1a 3440
00000100: cad6 fa22 a161 3740 c33f b676 ec62 3140
00000110: 237b 3dc5 95e4 14c0 540c d2dc 5895 2dc0
00000120: bf40 f33d 43a7 0e40 47c8 8f6a d273 3140
00000130: a8c0 5593 fae5 2f40 91b0 7993 1bbe 2540
00000140: 06e5 2751 26ba fb3f db36 0794 62e3 2540
00000150: 9b33 e73e 6c1a 2140 9ad3 d027 91f5 2e40
00000160: e966 da1a 8c03 3340 befd 0fe9 8758 3340
00000170: 0b9a 6dce 0e53 3840 96fb 4732 e163 3540
00000180: 330a 5188 510c 2b40 2a15 b379 c29c 2240
00000190: 06b3 f73f f6ea 1ac0 2f39 8bd1 7d78 16c0
000001a0: 3fe8 5fe5 f2c5 14c0 3cde ff6b 6186 17c0
000001b0: 8790 9ee3 d7e0 e73f ae41 f1d3 0093 1540
000001c0: f891 fef6 33ee f33f d20a 2b97 398f 1c40
000001d0: 152b bc17 4915 0a40 721e 5d3a ce3f 1540
000001e0: 3433 3333 3373 3940 dba3 703d 0a5f 3840
000001f0: bce3 141d c9df 3b40 2fa1 82c3 8b9d 3740
00000200: e9fa 31f2 a190 23c0 bcc7 9398 246b e93f
00000210: c31f 499e d488 3040 64b3 8552 41ff 2740
00000220: ad65 b929 5710 3440 f56a 3a51 dd3b 2340
00000230: 82b3 dbcb 4b3e 2c40 7bea 8b29 3e76 3740
00000240: f755 1c43 4645 3040 2131 11f7 a8ef 3140
00000250: d45c 4020 0892 2a40 0d15 edb8 e640 3840
00000260: aed4 663a 6dab 2440 8c29 7f87 9d62 2040
00000270: 24a6 a404 308d 2740 032f acb9 fb62 2840
00000280: e0b4 47b6 6508 23c0 a951 20d7 a800 19c0
00000290: a2ee cad9 14ec 06c0 8940 3b73 930a 1cc0
000002a0: c0f9 05df 16cc e4bf f340 1f09 f582 2140
000002b0: 6645 cf99 7470 2e40 6cc9 df73 cd38 2540
000002c0: 7f6c e293 f217 03c0 1c23 9f09 f8cf 07c0
000002d0: a099 9999 9919 2740 bf74 9318 040e 3440
000002e0: 6857 21e5 2762 4040 fc9e fded 579e 3240
000002f0: c9fc 8d8a 4030 1e40 4b83 56a9 b342 2140
00000300: b80d 750b 6952 0a40 160c 12d6 0e02 3140
00000310: c60c 053f 1b52 4140 3fec d3fe d48d 3040
00000320: 9c97 6c6b deb8 3840 f61b 79d3 cf2a d13f
00000330: a6c2 8420 5f56 2b40 0b10 8b17 6c4e 2240
00000340: c34a 3349 a411 a93f 7a79 98c2 8ec0 2540
00000350: 584b 102b 9936 3a40 971e 22e4 4b8c 2840
00000360: 0c37 00e5 3e99 3140 70a4 0a35 c522 2240
00000370: f586 e062 6f97 1ac0 2f39 8bd1 7d78 16c0
00000380: 4493 741f 46c8 00c0 f07b c464 2f02 13c0
00000390: 1db6 c424 08a6 983f 56c1 98cb e9d4 2b40
000003a0: 68b6 fd57 86e3 cf3f 88a7 ecb2 d25c 0a40
000003b0: 0f49 01b5 98e0 0040 fa19 7b59 21dd 0bc0
000003c0: 0000 0000 0000 d0bf c976 be9f 1acf 3c40
000003d0: 1244 dd07 2083 3240 cb08 1456 cffc 2340
000003e0: 4cc6 eabc d1a8 37c0 1df1 20d2 bb53 f6bf
000003f0: cb3e 593d 323e 3040 8b30 859d 7161 2a40
00000400: 34a5 8830 88aa 2b40 5a25 fb0e 9fb9 00c0
00000410: fdab 5f84 4b2c f3bf a333 c3cf 0b99 1240
00000420: c637 4dd4 8c88 f93f 36ed c626 d026 fe3f
00000430: d238 02dd f08b 2840 f9be e115 35a6 2240
00000440: 8555 dfdf be2b 2840 2825 7339 42d5 1740
00000450: ef4c 8747 81d2 fd3f 0a65 89e4 fe75 1a40
00000460: 28a9 2c19 a744 2f40 e6b1 c7c5 19a6 2f40
00000470: 7bbe bc9b 7920 07c0 9528 98eb 3de8 19c0
00000480: 14be cfec 590a fe3f b97b 6690 6311 3140
00000490: dc2a 5b3e c8d0 ea3f 32f3 688d 6433 13c0
000004a0: f01e 6641 f4b4 2040 aad4 1cee a120 eabf
000004b0: 9c99 9999 9919 3c40 d778 e926 3180 3f40
000004c0: 512c b7b4 1a92 1340 5cb8 bdee bed7 2140
000004d0: 6df7 1c9f 2309 28c0 adf9 d776 c4ea 1040
000004e0: 7751 66cf 1448 3740 c117 c4aa 3d52 3040
000004f0: a943 9f04 00c9 3940 1afe 3c1b c468 de3f
00000500: 1677 38c9 b527 07c0 efa9 35bd 37c0 09c0
00000510: 65ab b24c 5098 02c0 1d25 9a9d 7c04 1740
00000520: 14f3 ab61 7bf2 2640 6d32 8947 b6b3 3040
00000530: 2dc8 74c5 7f5c 1d40 ea0a f083 7b3c 2040
00000540: 2e63 2a8b c9c0 2c40 716e 45a3 9756 2f40
00000550: 014b 5784 3bcd 3240 2d65 ae65 2217 0140
00000560: 1508 77ab 9c84 0fc0 6948 a7c3 4d8f 19c0
00000570: 1cfc cc7a 45b1 1c40 931a ae69 b2f8 3840
00000580: 921d a110 f200 f93f 34fb 3079 9eee eebf
00000590: a4f3 ac7a 0f01 cebf fccf aaa7 b9f9 1240
000005a0: 6866 6666 6666 2e40 a59b c420 b026 4240
000005b0: 9f3c 2cd4 9a1c 4440 8c3b 9457 9d6f 0240
000005c0: a8ce 5955 85af 36c0 2f78 0e3f 5726 13c0
000005d0: 0994 f691 26a8 1640 b4c2 3e01 2311 2f40
000005e0: ac65 b929 5710 2440 0175 6caf 1f38 3140
000005f0: f24d 6fa9 9640 1a40 1f57 32ca 65be 0440
00000600: 0302 e974 a614 1340 86ab 575d ccd0 1640
00000610: 3070 2962 1c0d 1d40 2e09 6477 23ed 3540
00000620: 589e bb0b aed3 2240 1730 245d d09c 1d40
00000630: b6e8 934b 1ea6 2d40 d9e3 33ae 0bfa 3240
00000640: 4553 5e53 5227 1540 b890 1cb1 cc1c 1bc0
00000650: b6b1 e6b2 35d4 12c0 d2dc 782c e0be 14c0
00000660: 0dc9 5745 a008 19c0 1a5d f463 f5c1 2a40
00000670: 1fb9 4161 8288 2040 05b2 8190 3316 2d40
00000680: 75a7 97b8 1379 2e40 d130 d511 3abc 2140
00000690: 3433 3333 3373 3340 0e2d b29d efc7 4040
000006a0: f4e0 eeac dd64 3440 a1f3 7574 b7b6 3340
000006b0: 8781 1661 96d3 34c0 cf77 0c95 d022 1b40
000006c0: 039e 379c 6d28 2440 c510 16f8 b780 3240
000006d0: d12f 9323 2625 4040 0fd4 6098 5d37 1b40
000006e0: 956c c439 3f8d 3940 af82 4baf 981d 2fc0
000006f0: a7df b370 cce9 2340 6545 1c57 46f8 2140
00000700: 68d5 710a 37c7 2b40 110a cedd 726b 3540
00000710: 0be9 04a4 b895 0040 34b1 7260 6109 3340
00000720: 47bc 4a06 8322 2b40 3ab7 da89 76b9 2240
00000730: ffbd f2e0 21d6 e1bf 5c4e c687 320a 22c0
00000740: 1d2a 0ace 3951 12c0 d366 2f5c dc6e 16c0
00000750: a33f 0e35 54d7 0840 b79e c47d 18c1 ffbf
00000760: 5d45 cf99 7470 de3f e8b1 4ffd 9579 14c0
00000770: ac2b 4b41 6959 2340 2fd0 0a96 3627 2c40
00000780: cccc cccc cc0c 3c40 8295 438b 6caf 3440
00000790: 3822 a644 126d 0f40 84ba 48a1 2c14 2440
000007a0: 014a 0be3 4384 34c0 4cca 245e 78f0 1c40
000007b0: 82cb f8c9 6853 2140 1edb 9ff2 766e 3740
000007c0: 6815 3a80 6775 4040 5269 117b 1c38 2e40
000007d0: 84fc e387 13f5 f93f b6dd 68c9 b61c 3040
000007e0: 24b3 f83d 5582 1540 41ed c626 d026 1e40
000007f0: ad54 845e d4c1 0140 2e89 f0ab 4af7 1e40
